mediapipe/model/keypoint_classifier/keypoint_classifier.tflite (tflite, 6532 bytes, 6 tensors)

sequential/dense/BiasAdd/ReadVariableOp f4 [20]
0.031378143 -0.16212022 -0.2788844 -0.26053217 -0.47763705 -0.069711 0.403193 0.38027027
0.185987 0.53283894 -0.19818817 0.0217144 -0.059882183 -0.22333173 -0.571868 0.4512985
0.09431839 -0.18588589 -0.3132201 -0.116862066
00000000: 5e86 003d d802 26be f0c9 8ebe 7964 85be
00000010: d88c f4be a4c4 8ebd 506f ce3e c9b2 c23e
00000020: 6073 3e3e 2268 083f d7f1 4abe 66e2 b13c
00000030: 0547 75bd 13b1 64be f165 12bf 9910 e73e
00000040: 002a c13d df58 3ebe 635e a0be 6155 efbd

sequential/dense_2/BiasAdd/ReadVariableOp f4 [5]
-0.20536657 -0.3047337 0.40387493 0.18043126 -0.09561388
00000000: 9d4b 52be 0e06 9cbe b2c8 ce3e f9c2 383e
00000010: 36d1 c3bd

sequential/dense_1/BiasAdd/ReadVariableOp f4 [10]
-0.024054788 0.2941475 0.4231058 -0.10295103 0.55635446 0.4988162 -0.281187 -0.15273456
0.33064032 0.49991685
00000000: 8c0e c5bc 809a 963e 53a1 d83e fdd7 d2bd
00000010: 3f6d 0e3f d664 ff3e bef7 8fbe 7366 1cbe
00000020: b049 a93e 1af5 ff3e

sequential/dense/MatMul f4 [20, 42]
0.0706386 -0.23636773 -0.091766246 0.64228565 0.05202854 0.1481195 0.012660353 0.0459653
-0.015913919 0.1155627 0.051550604 -0.021198638 -0.09793206 0.07400783 0.019956121 -0.05503696
0.04522528 0.013957438 0.28584844 0.09316325 0.07955815 -0.039796818 -0.06854767 -0.25759387
-0.068620495 0.33912733 0.2760517 0.082770854 -0.08321501 0.020287674 0.21371414 -0.18411791
-0.07905066 -0.6593558 -0.0845975 0.10221042 0.009385666 0.08514414 -0.056941748 0.055636052
-0.06754026 0.2642801 -0.031300247 -0.00359568 -0.054209676 0.460728 -0.030520689 0.048569724
0.39808986 0.052047923 0.5047716 0.21416423 -0.08923247 0.13934115 0.059421767 0.030138662
0.10659957 0.0885053 -0.1329294 0.07245776 -0.06852977 0.022739472 -0.059049856 0.0051510925
-0.12501046 -0.46019015 0.076042525 -0.50082606 0.23697641 0.108873315 0.12852061 -0.023367349
-0.2052991 -0.11049643 -0.03220086 -0.7838362 0.250636 0.054760043 -0.086901896 0.059742287
0.026862318 0.24000658 -0.17443515 0.12919198 0.20723546 0.0027480125 -0.091337204 -0.08865963
0.13282873 0.13784932 -0.31255037 0.12694193 -0.25227615 0.10425751 0.024815813 0.16138057
0.14664458 0.16817033 -0.12750067 -0.053757597 0.13347907 -0.028213069 0.18874331 0.1401311
0.21055196 0.021534942 -0.18886471 -0.2950509 -0.17231005 -0.45557946 -0.038482625 0.252529
0.028958894 0.047538258 -0.13434698 -0.41968358 -0.074543685 -0.42401975 -0.05043211 0.45676917
-0.029731695 0.30756617 -0.05223019 -0.20693947 -0.018093882 -0.861369 -0.172216 0.1115157
0.5311324 -0.07850692 0.6784836 -0.122740135 1.2239137 -0.15362738 1.5182716 -0.11694074
0.13580152 -0.10336235 0.08110223 -0.11340333 0.0015555747 0.1093786 -0.14179808 0.01836431
-0.13240905 -0.004203457 -0.12216868 0.027895862 -0.14060365 0.05937953 0.082157895 0.10643717
0.109920606 -0.031401515 0.23923995 0.056061964 0.3893904 0.09944108 0.1317411 0.07815389
-0.37199017 0.04922191 -0.5637534 -0.039909456 -0.55511004 -0.008068305 -0.3061309 0.13741411
0.23344904 -0.23611215 0.2058753 0.042182587 0.4711825 0.038928073 0.79185003 -0.012333866
0.51355106 0.0623039 0.38870576 -0.084155984 0.091387145 -0.09403552 0.12896009 0.14922254
0.26881477 0.17450498 0.7169557 0.032763567 0.8911772 0.04745256 0.55449224 0.0503616
-0.08023331 0.017928986 0.6083503 0.07153878 0.6970641 -0.18613058 0.51860857 -0.00745522
0.06738873 0.048371516 0.11815052 -0.36263117 -0.25822982 0.02441867 -0.19015063 0.036812607
0.22862184 0.15911725 0.2330842 -0.038354874 0.12177342 0.33419082 0.0140621755 0.18279198
0.30296728 0.13886793 -0.07479123 0.3782499 0.17677486 0.2864957 -0.16436933 0.026120856
-0.12706119 0.052482143 -0.21690094 -0.17677459 -0.018464345 0.33977768 0.23632793 0.009294127
0.22152486 -0.01231648 -0.105486445 0.06548131 0.35181788 -0.15196343 0.02008189 0.30769876
-0.007842901 0.31214055 -0.0013464349 -0.034996174 0.03444456 0.1337695 -0.22468069 -0.19823854
-0.23969132 0.22797409 -0.06614064 0.085453995 -0.0688782 0.08879802 -0.184664 0.18915816
00000000: f8aa 903d 620a 72be f1ef bbbd d56c 243f
00000010: e11b 553d a3ac 173e 5f6d 4f3c 1c46 3c3d
00000020: e85d 82bc 23ac ec3d ba26 533d c4a8 adbc
00000030: 9b90 c8bd 6b91 973d 057b a33c 6f6e 61bd
00000040: 253e 393d bdad 643c ba5a 923e 60cc be3d
00000050: 62ef a23d fd01 23bd b962 8cbd 58e3 83be
00000060: e788 8cbd 19a2 ad3e a656 8d3e c483 a93d
00000070: a26c aabd 5632 a63c e1d7 5a3e 6889 3cbe
00000080: 50e5 a1bd 8bcb 28bf 7441 adbd b253 d13d
00000090: 56c6 193c 0d60 ae3d c03b 69bd a1e2 633d
000000a0: 8c52 8abd b94f 873e b034 00bd 80a5 6bbb
000000b0: f70a 5ebd 8ae4 eb3e 8606 fabc 0cf1 463d
000000c0: 6fd2 cb3e 3430 553d b638 013f de4d 5b3e
000000d0: 83bf b6bd 72af 0e3e 3d64 733d 5be5 f63c
000000e0: e050 da3d 4442 b53d a51e 08be bc64 943d
000000f0: 5659 8cbd 2148 ba3c 43de 71bd 7fca a83b
00000100: be02 00be 0b9e ebbe 2fbc 9b3d 2336 00bf
00000110: f2a9 723e f9f8 de3d e89a 033e e26c bfbc
00000120: ed39 52be f44b e2bd 0de5 03bd 7da9 48bf
00000130: 5d53 803e 114c 603d 9ff9 b1bd 54b4 743d
00000140: 5d0e dc3c 49c4 753e 219f 32be e74a 043e
00000150: 8835 543e 0018 343b 000f bbbd 2e93 b5bd
00000160: 4104 083e 5f28 0d3e 9a06 a0be 11fd 013e
00000170: 572a 81be f684 d53d 884a cb3c f340 253e
00000180: ff29 163e d834 2c3e 898f 02be ed30 5cbd
00000190: bdae 083e 181f e7bc ed45 413e 877e 0f3e
000001a0: ef9a 573e 0c6a b03c c065 41be e910 97be
000001b0: 0c72 30be b641 e9be f59f 1dbd 7b4b 813e
000001c0: 343b ed3c 7ab7 423d 4192 09be c4e0 d6be
000001d0: 5caa 98bd 1e19 d9be e691 4ebd a6dd e93e
000001e0: e28f f3bc 5079 9d3e 53ef 55bd f1e7 53be
000001f0: 9f39 94bc ae82 5cbf 6459 30be 5862 e43d
00000200: 4bf8 073f 3cc8 a0bd 1ab1 2d3f 2e5f fbbd
00000210: 34a9 9c3f 7f50 1dbe b956 c23f a07e efbd
00000220: 8e0f 0b3e a4af d3bd ed18 a63d 0140 e8bd
00000230: 6de4 cb3a e301 e03d 8433 11be c070 963c
00000240: 3d96 07be 27bd 89bb 9333 fabd dd85 e43c
00000250: 67fa 0fbe f337 733d 6642 a83d bbfb d93d
00000260: 0e1e e13d e09e 00bd 51fb 743e 3ba1 653d
00000270: 2e5e c73e c4a7 cb3d 24e7 063e 260f a03d
00000280: 7f75 bebe ea9c 493d 2552 10bf 1978 23bd
00000290: b11b 0ebf ed30 04bc 30bd 9cbe 49b6 0c3e
000002a0: 440d 6f3e 62c7 71be fad0 523e a6c7 2c3d
000002b0: d53e f13e 0b73 1f3d afb6 4a3f fc13 4abc
000002c0: 1578 033f 6032 7f3d 7104 c73e f959 acbd
000002d0: 2f29 bb3d b295 c0bd 1d0e 043e cbcd 183e
000002e0: 17a2 893e 6fb1 323e 698a 373f 1733 063d
000002f0: 3024 643f 9e5d 423d 34f3 0d3f f747 4e3d
00000300: 5d51 a4bd cfdf 923c d8bc 1b3f ed82 923d
00000310: cb72 323f 0499 3ebe 88c3 043f eb4a f4bb
00000320: 1a03 8a3d 3621 463d e6f8 f13d cbaa b9be
00000330: b336 84be aa09 c83c d9b6 42be d1c8 163d
00000340: d81b 6a3e a2ef 223e a0ad 6e3e 001a 1dbd
00000350: 5864 f93d 0f1b ab3e 0a65 663c d22d 3b3e
00000360: 871e 9b3e 6533 0e3e 252c 99bd f9a9 c13e
00000370: 7804 353e 90af 923e 6f50 28be 68fb d53c
00000380: 541c 02be 84f7 563d 481b 5ebe 6604 35be
00000390: 8a42 97bc 57f7 ad3e f3ff 713e 6546 183c
000003a0: 6ad7 623e 10cb 49bc 4709 d8bd 111b 863d
000003b0: 7921 b43e 4d9c 1bbe c782 a43c b18a 9d3e
000003c0: 837f 00bc e3d0 9f3e dc7a b0ba 2658 0fbd
000003d0: bd15 0d3d dffa 083e b212 66be 0bff 4abe
000003e0: a471 75be 0a72 693e be74 87bd 8102 af3d
000003f0: 0410 8dbd bcdb b53d 8f18 3dbe adb2 413e

sequential/dense_1/MatMul f4 [10, 20]
-0.20647018 0.02289003 0.084142275 1.0507501 0.010204564 -0.095258445 0.57703483 0.30349368
0.47259444 0.56190944 1.2630409 0.15737742 0.37675983 0.009044411 0.7662852 0.28219083
-0.3790514 1.0105522 1.0433464 0.5176319 0.2372867 0.60071915 0.60398 -0.22700943
-0.18479748 -0.27118477 0.21211402 -0.34211844 -0.035827648 -0.2383742 -0.14003924 0.5299917
0.7132793 -0.4346173 -0.49642938 0.41818982 0.010336644 0.013421519 -0.09096804 -0.35908794
0.27385354 0.31942832 0.59966224 0.21558328 -0.2446609 -0.17742653 -0.5827276 -0.42069274
-0.7539731 -0.7302053 -0.088360354 0.49828878 0.5192681 -0.15407996 0.49934363 0.035901077
-0.33465075 -0.6975294 0.17698038 -0.58819664 -0.019444717 0.57069266 -0.08386382 -0.06572929
0.3796405 0.26084897 -0.6044404 0.22801456 -0.16193849 -0.12840317 -0.018820466 0.40807974
-0.30554715 -0.009635473 0.36362368 -0.0773619 0.7706834 -0.052144613 0.018452048 0.35664836
0.17704327 0.06278322 0.1562462 -0.15905766 -0.39235494 -0.0062546507 0.7136681 0.5274969
-0.36428913 0.45899767 -0.2559221 0.29248694 0.13768683 0.17039968 -0.16456917 0.60100144
0.6716893 -0.4089359 -0.6978619 -0.37899414 0.84624135 0.33099434 0.24585108 0.08549621
-0.43486804 0.36601013 -0.42349806 -0.2597579 -0.36722985 -0.3087902 -0.097866714 0.72669506
0.68168974 -0.029802643 0.18523438 0.0061193593 -0.42650062 -0.23665719 -0.17572722 -0.527066
-0.293728 -0.064164616 0.5631306 0.7823857 0.4702431 -0.24425887 -0.78112924 -0.19096406
0.46178833 -0.32906142 0.6560705 -0.10443693 -0.20756882 0.5170511 0.44323605 -0.34902304
-0.2584749 0.49319503 0.52495366 0.29323494 -0.02898202 0.3371447 0.045398112 0.72441953
0.48697028 0.1550364 -0.73217285 -0.11029681 0.15242934 -0.4447453 0.42715332 0.22283359
0.2392413 0.50949055 1.0718986 -0.03042634 -0.18880233 0.39227575 0.5827533 0.23316064
-0.42981598 -0.0032423416 0.042272437 -0.1832813 0.12236611 0.105202444 0.025869898 0.64838964
0.6886084 0.11941272 -0.45462266 0.2871113 0.0845774 -0.2342093 -0.46219486 0.3417701
0.29760474 0.6096162 0.50338316 0.15274523 -0.4857507 -0.35526553 -0.10680621 0.80598855
-0.30240712 0.34262553 0.7774447 0.16543205 0.24993816 0.19754691 0.3183036 0.003498201
-0.07129186 0.684356 0.5925922 0.177966 -0.26318476 -0.035840556 0.114449546 0.328303
00000000: eb6c 53be df83 bb3c c952 ac3d fb7e 863f
00000010: 0b31 273c dc16 c3bd 8eb8 133f 8663 9b3e
00000020: e6f7 f13e 4cd9 0f3f 53ab a13f 8c27 213e
00000030: aae6 c03e 022f 143c 442b 443f 517b 903e
00000040: 0613 c2be c659 813f 608c 853f 8683 043f
00000050: 49fb 723e bbc8 193f 6f9e 1a3f 2975 68be
00000060: 8d3b 3dbe bbd8 8abe 6b34 593e 262a afbe
00000070: 03c0 12bd 5e18 74be 7266 0fbe 89ad 073f
00000080: 7999 363f 2986 debe fe2b febe fa1c d63e
00000090: 075b 293c eee5 5b3c 744d babd 60da b7be
000000a0: 8836 8c3e 1c8c a33e 7783 193f ddc1 5c3e
000000b0: 6388 7abe 4daf 35be a32d 15bf 0a65 d7be
000000c0: 6204 41bf bcee 3abf 46f6 b4bd b51f ff3e
000000d0: c1ee 043f 23c7 1dbe f8a9 ff3e 020d 133d
000000e0: 5857 abbe 4991 32bf 583a 353e 0e94 16bf
000000f0: 874a 9fbc ea18 123f cbc0 abbd 149d 86bd
00000100: 3d60 c23e ff8d 853e 9bbc 1abf a67c 693e
00000110: 34d3 25be 1f7c 03be 612d 9abc d4ef d03e
00000120: ad70 9cbe 1ade 1dbc e22c ba3e ea6f 9ebd
00000130: 824b 453f 9795 55bd c028 973c 9d9a b63e
00000140: d54a 353e 7d94 803d 01ff 1f3e 03e0 22be
00000150: bfe2 c8be d0f3 ccbb f4b2 363f 090a 073f
00000160: 1b84 babe be01 eb3e 3908 83be d9c0 953e
00000170: c7fd 0c3e 417d 2e3e d284 28be 3bdb 193f
00000180: d4f3 2b3f 0c60 d1be 14a7 32bf 850b c2be
00000190: 46a3 583f 1778 a93e 63c0 7b3e a318 af3d
000001a0: 06a7 debe ae65 bb3e bdd4 d8be fdfe 84be
000001b0: 8d05 bcbe c019 9ebe 586e c8bd b008 3a3f
000001c0: 3883 2e3f ac24 f4bc 15ae 3d3e e884 c83b
000001d0: 4a5e dabe 4356 72be d6f1 33be cced 06bf
000001e0: 8463 96be bd68 83bd 5429 103f 6e4a 483f
000001f0: b4c3 f03e ff1e 7abe 16f8 47bf 158c 43be
00000200: 856f ec3e bd7a a8be 3cf4 273f 07e3 d5bd
00000210: ec8c 54be 765d 043f d6ef e23e 26b3 b2be
00000220: d256 84be 0f84 fc3e 5d63 063f e422 963e
00000230: b46b edbc 3b9e ac3e 5ff3 393d 8f73 393f
00000240: 2b54 f93e ddc1 1e3e ae6f 3bbf 4be3 e1bd
00000250: 7016 1c3e a8b5 e3be d7b3 da3e 7d2e 643e
00000260: acfb 743e f96d 023f f933 893f a940 f9bc
00000270: 6655 41be 5ed8 c83e 522f 153f aac1 6e3e
00000280: d710 dcbe 777d 54bb dd25 2d3d 18ae 3bbe
00000290: 159b fa3d 6174 d73d 1ced d33c ddfc 253f
000002a0: a448 303f a88e f43d 4dc4 e8be 4100 933e
000002b0: ea36 ad3d 90d4 6fbe cea4 ecbe 7efc ae3e
000002c0: a65f 983e cf0f 1c3f b8dd 003f 3f69 1c3e
000002d0: 51b4 f8be 5de5 b5be 37bd dabd 4455 4e3f
000002e0: 1bd5 9abe 9d6c af3e 9e06 473f 0567 293e
000002f0: caef 7f3e bd49 4a3e b1f8 a23e 1342 653b
00000300: 7701 92bd f431 2f3f 1fb4 173f b83c 363e
00000310: 27c0 86be 8ccd 12bd 8664 ea3d 5517 a83e

sequential/dense_2/MatMul f4 [5, 10]
0.31454152 0.7422293 -0.25643003 -0.2065848 -0.47957215 0.12709127 -0.18185821 -0.24670364
0.61014724 -0.20140682 0.1239613 -0.88893795 -0.46310943 0.72177017 -0.79293156 -0.6577672
0.8813834 0.43227467 -0.13898231 0.34214813 0.42362702 -0.7631228 -1.0123686 -0.51914304
0.22463188 -1.051989 -0.58684075 -0.5105497 0.31450415 0.99633145 -1.1371117 0.46531844
0.32217354 0.30356303 0.8404212 0.6509511 -1.3258919 -1.1710149 -0.37878138 0.013654387
0.12822914 -0.05595058 0.65829813 -0.26739836 -0.27478212 0.71450585 0.08890763 0.2890917
-1.1735095 0.36733514
00000000: 960b a13e bd02 3e3f cc4a 83be f78a 53be
00000010: 7b8a f5be 3724 023e 0a39 3abe e19f 7cbe
00000020: 9c32 1c3f 973d 4ebe 6cdf fd3d 7091 63bf
00000030: ae1c edbe eec5 383f 90fd 4abf 6e63 28bf
00000040: 58a2 613f 1b53 dd3e 6151 0ebe 0a2e af3e
00000050: a4e5 d83e 045c 43bf 4b95 81bf 8fe6 04bf
00000060: e605 663e 93a7 86bf 323b 16bf 63b3 02bf
00000070: b006 a13e 940f 7f3f e08c 91bf 383e ee3e
00000080: eef3 a43e 9d6c 9b3e d825 573f bba4 263f
00000090: d3b6 a9bf d1e3 95bf a2ef c1be a6b6 5f3c
000000a0: 804e 033e 6f2c 65bd 3a86 283f 70e8 88be
000000b0: 3eb0 8cbe dbe9 363f 3415 b63d d403 943e
000000c0: 8f35 96bf 5a13 bc3e
