mediapipe/model/keypoint_classifier/keypoint_classifier.tflite (tflite, 6276 bytes, 6 tensors)

dense_2/bias f4 [4]
-0.05344406 -0.03321027 0.22128083 -0.12818319
00000000: 29e8 5abd 7e07 08bd 7197 623e 7442 03be

dense_1/bias f4 [10]
0.11582411 0.24910398 0.05532651 0.19441637 0.35098308 0.48789343 0.10904065 0.03425877
0.4907659 -0.16730617
00000000: 3135 ed3d 1d15 7f3e 0d9e 623d 1615 473e
00000010: 0eb4 b33e 2bcd f93e b450 df3d ed52 0c3d
00000020: ab45 fb3e 4f52 2bbe

dense/bias f4 [20]
0.11135683 -0.23347887 -0.16898882 0.04704801 0.3653794 0.08752 -0.08862357 0.051722206
0.2654437 -0.3369773 0.03124919 -0.17492685 -0.13578466 -0.2824866 -0.047989573 -0.35426003
-0.42813253 -0.21945287 -0.51385885 -0.44803524
00000000: 0d0f e43d 1615 6fbe 680b 2dbe 6ab5 403d
00000010: 0213 bb3e b03d b33d 4680 b5bd aada 533d
00000020: 3de8 873e 4a88 acbe 4dfe ff3c 0620 33be
00000030: 220b 0bbe 15a2 90be b790 44bd 9261 b5be
00000040: 3034 dbbe 41b8 60be 418c 03bf e064 e5be

sequential/dense/MatMul f4 [20, 42]
0.2652523 0.26033467 -0.16712345 0.47916523 0.0014267853 0.20885648 0.056987893 0.20471184
-0.040717013 0.16767603 -0.119354635 0.108378485 -0.1738911 0.15407917 0.10506223 -0.22602929
-0.10912422 -0.3025109 -0.20875165 0.13190164 0.103872865 0.121121034 0.101301745 -0.18988071
0.28770432 -0.44128248 0.07235632 0.22058079 0.031557854 0.13585831 -0.09777377 -0.07341871
0.20941985 -0.58740896 0.040990647 0.19492309 -0.1328787 0.10486927 -0.04112006 0.1521381
0.056997046 0.06353326 0.17228076 -0.13880084 0.08169607 0.37332174 0.19141445 0.12837946
-0.028767744 0.14055425 -0.19752043 0.087057605 -0.0035434081 -0.044763155 0.33868346 0.13647056
0.19919701 -0.10652415 0.31034386 -0.6735767 0.017943121 0.10137035 0.007201261 0.18034418
0.2756698 -0.26979762 -0.10355304 -0.031736944 -0.1481297 -0.07242368 0.15307353 0.08389736
0.16682234 -0.06224392 0.16642523 -0.65866137 -0.33805826 -0.15427826 0.1824603 0.038255215
0.16861334 0.22977376 0.08694271 0.18197733 -0.26629415 -0.18742508 0.009010998 0.3589826
0.06901618 0.28638855 -0.0442324 0.18082254 -0.62047523 0.1256985 -0.023765663 0.12025215
0.160917 0.081265055 0.040834196 0.03985068 0.020813446 -0.0024241407 0.15658778 0.1380693
0.017592736 0.13270116 -0.05141439 0.0094133355 -0.09669046 0.008087382 -0.15333894 0.12484549
-0.08602959 0.10567724 0.2732441 -0.10717437 -0.072911695 -0.33840498 -0.06525043 0.22828458
0.016497549 0.17948064 0.57638395 -0.33232018 0.6373552 -0.9085794 0.12308547 -0.12066536
-0.081593394 0.5880871 -0.044936143 0.2812905 0.186769 0.13705358 0.6738088 0.11416734
-0.09443306 0.17512117 -0.11369931 0.068755016 -0.012594598 -0.07203464 -0.042383496 -0.18825519
0.160029 0.1958135 -0.1785722 0.17027208 -0.31758648 -0.035079326 -0.1060177 0.095299795
-0.05024089 0.19905727 0.12477878 0.07328672 -0.08469676 -0.51212204 0.03079121 -0.2344189
0.05810752 0.21210264 -0.18331347 0.15214951 -0.30144006 -0.07793887 -0.6251236 -0.5149747
-0.14089507 -0.21782026 -0.008842391 0.22554244 -0.017216345 0.033628557 0.041013144 0.11603523
0.08605142 0.07691752 -0.1398785 0.082831904 0.004295056 0.08137387 -0.049674053 0.012420318
0.13553141 -0.9606244 0.07569645 0.16961026 -0.013737102 0.045259204 -0.03632704 -0.15900074
-0.049438443 0.18373108 0.18179479 0.12152461 0.28782114 0.10356917 -0.10383526 0.19530475
-0.25752535 0.3457254 -0.12597565 0.09802986 -0.03596636 0.17043623 -0.027744109 0.18655863
0.058955215 0.21973938 0.2497586 -0.07389332 0.23056026 0.34776565 -0.12864888 0.06111843
0.010092824 0.114175424 0.048479054 0.08046576 0.11240113 0.05085849 -0.067171454 -0.08231817
-0.0858379 -0.18496841 -0.18217647 -0.33142453 -0.006646057 -0.06692637 -0.08098698 -0.0702792
-0.035121642 -0.3524265 0.4112063 -0.59461343 0.18129131 -0.10989081 0.1054176 0.21221237
-0.13266945 0.3337648 -0.060100894 0.41273347 -0.058910806 -0.07134105 -0.010960691 0.17310464
-0.08379175 0.29956266 0.118377395 0.22248982 -0.30415848 0.011263609 -0.18973798 -0.19406928
00000000: 26cf 873e 964a 853e 6922 2bbe 2555 f53e
00000010: f802 bb3a 79de 553e 236c 693d fb9f 513e
00000020: e2c6 26bd 44b3 2b3e 3470 f4bd 8af5 dd3d
00000030: 8210 32be eec6 1d3e de2a d73d 3974 67be
00000040: 857c dfbd b5e2 9abe fec2 55be 3911 073e
00000050: 4cbb d43d 4e0e f83d 4a77 cf3d 1770 42be
00000060: fb4d 933e c7ef e1be 8d2f 943d eedf 613e
00000070: cf42 013d 711e 0b3e 9d3d c8bd 8c5c 96bd
00000080: 2872 563e 6f60 16bf cfe5 273d eb99 473e
00000090: 5b11 08be b3c5 d63d 826d 28bd 17ca 1b3e
000000a0: bc75 693d ba1d 823d 5e6a 303e cf21 0ebe
000000b0: 4550 a73d 0724 bf3e 2602 443e e875 033e
000000c0: 55aa ebbc 74ed 0f3e cc42 4abe 424b b23d
000000d0: 8638 68bb 9259 37bd eb67 ad3e f0be 0b3e
000000e0: 4dfa 4b3e 5529 dabd 64e5 9e3e 866f 2cbf
000000f0: 74fd 923c 429b cf3d 8ef8 eb3b 25ac 383e
00000100: 9824 8d3e ea22 8abe 9e13 d4bd 99fe 01bd
00000110: 50af 17be de52 94bd 4fbf 1c3e 61d2 ab3d
00000120: 7ad3 2a3e 7bf3 7ebd 606b 2a3e 089e 28bf
00000130: f915 adbe 1ffb 1dbe dfd6 3a3e 80b1 1c3d
00000140: faa8 2c3e d049 6b3e 050f b23d 4458 3a3e
00000150: b557 88be 5cec 3fbe dda2 133c 91cc b73e
00000160: 5b58 8d3d 85a1 923e 082d 35bd 8b29 393e
00000170: 77d7 1ebf 1cb7 003e 35b0 c2bc c246 f63d
00000180: 6dc7 243e 4b6e a63d c241 273d 773a 233d
00000190: f680 aa3c 55de 1ebb 8c58 203e 0a62 0d3e
000001a0: a41e 903c d0e2 073e e597 52bd 643a 1a3c
000001b0: a605 c6bd f080 043c e204 1dbe feae ff3d
000001c0: 4830 b0bd 4f6d d83d a7e6 8b3e 3c7e dbbd
000001d0: ba52 95bd 6b43 adbe 04a2 85bd 6fc3 693e
000001e0: de25 873c c6c9 373e e68d 133f df25 aabe
000001f0: b629 233f a998 68bf 3c14 fc3d 661f f7bd
00000200: 701a a7bd e08c 163f f60e 38bd 4f05 903e
00000210: 5f40 3f3e c657 0c3e bc7e 2c3f 91d0 e93d
00000220: 1f66 c1bd f752 333e 2fdb e8bd 6ecf 8c3d
00000230: 9359 4ebc e686 93bd 519a 2dbd f8c5 40be
00000240: a4de 233e 5683 483e a1db 36be ce5b 2e3e
00000250: b29a a2be 57af 0fbd cf1f d9bd 8a2c c33d
00000260: 64c9 4dbd abd5 4b3e 048c ff3d 5917 963d
00000270: 7f75 adbd 6e1a 03bf d93d fc3c 820b 70be
00000280: 2702 6e3d 6f31 593e 87b6 3bbe 15cd 1b3e
00000290: 5a56 9abe 6a9e 9fbd 1a08 20bf 62d5 03bf
000002a0: cc46 10be 460c 5fbe addf 10bc 99f4 663e
000002b0: 4b09 8dbc 19be 093d 66fd 273d e1a3 ed3d
000002c0: ba3b b03d ef86 9d3d 4f3c 0fbe c6a3 a93d
000002d0: 8bbd 8c3b 58a7 a63d 0577 4bbd 977e 4b3c
000002e0: bfc8 0a3e 7beb 75bf be06 9b3d 50ae 2d3e
000002f0: 9511 61bc b761 393d aacb 14bd 17d1 22be
00000300: f77f 4abd 0024 3c3e 6a28 3a3e e5e1 f83d
00000310: 4b5d 933e 131c d43d 95a7 d4bd f8fd 473e
00000320: 5dda 83be eb02 b13e c3ff 00be e1c3 c83d
00000330: 7651 13bd d686 2e3e 9d47 e3bc 3a09 3f3e
00000340: 067b 713d 5c03 613e b8c0 7f3e 6255 97bd
00000350: fd17 6c3e 570e b23e 88bc 03be 5257 7a3d
00000360: 5f5c 253c ced4 e93d f991 463d 3bcb a43d
00000370: 9032 e63d fe50 503d 3091 89bd 6e96 a8bd
00000380: c8cb afbd 5c68 3dbe 788c 3abe 7ab0 a9be
00000390: 2bc7 d9bb b110 89bd 80dc a5bd 8bee 8fbd
000003a0: b6db 0fbd 3f71 b4be a289 d23e 9638 18bf
000003b0: 6ea4 393e 6f0e e1bd 2fe5 d73d 334e 593e
000003c0: 80da 07be 38e3 aa3e 5b2c 76bd cd51 d33e
000003d0: 754c 71bd 421b 92bd 7894 33bc 5842 313e
000003e0: 029b abbd 4760 993e d96f f23d 5fd4 633e
000003f0: a9ba 9bbe 008b 383c ac4a 42be 19ba 46be

sequential/dense_1/MatMul f4 [10, 20]
-0.37048155 -0.16494922 0.18705143 0.56618774 -0.34070906 -0.15214324 -0.4205937 -0.37538514
-0.13047521 -0.08880741 0.51321423 0.56047976 0.6648858 0.67220455 0.7888013 0.6733798
0.28845632 0.5330622 -0.32994 0.57221836 -0.11513959 0.109302334 0.40154114 0.1511295
0.12066625 0.105333574 -0.18615612 -0.28022814 -0.20247991 0.28803498 0.54816586 0.13364688
0.52896124 0.03646555 -1.0977262 -0.5355185 0.048480175 0.2319264 -0.7452198 0.086395256
-0.24684055 0.26420397 0.38936314 -0.06680152 -0.1747959 -0.09142677 0.4960825 -0.11242438
-0.122553535 0.38379642 0.5855799 0.15662494 0.59987926 0.8084227 0.5330546 0.40964597
0.5208884 0.6215873 0.35267973 0.29549152 0.9797316 0.4174687 0.15617158 0.3684014
0.43817014 0.6494118 -0.117894016 0.968214 0.48337573 0.5289269 -0.10740407 -0.1970532
-0.40355557 0.14514649 -0.09650268 0.0933154 -0.37155494 -0.28690356 -0.0064657326 -0.23580621
0.30029133 0.256506 -0.086759664 0.030823356 0.7691302 0.5049038 -0.19308263 0.7228673
0.46708298 0.44493163 -0.13748513 -0.11133953 -0.7288895 -0.25985485 -0.07957541 -0.18382274
-0.32642505 -0.34246054 -0.056030612 -0.46111855 0.0037426047 -0.03192609 -0.42484996 -0.32305276
0.23964486 0.34619507 -0.11962467 0.06136653 0.6178229 0.24699366 -0.7116643 0.52177393
-0.0501318 0.16763118 -0.6033385 -0.5895582 -0.10228469 -0.3843207 -0.076312535 -0.043274153
0.10049981 -0.0015026449 1.115513 0.47178662 -0.1853006 -0.00959166 -0.5047646 0.16186474
-0.22023118 0.15181182 0.375458 -0.16640058 0.042449117 0.65277153 1.0925363 0.4041058
-0.13191703 0.23324285 0.4311061 -0.22923672 0.05206028 0.63674104 -0.022074673 -0.6646235
-0.37274924 0.4759777 0.43367976 0.07296055 0.13794184 0.5679858 -0.4049041 0.28190306
0.43837914 -0.004239348 -0.03352915 0.14639312 0.3491532 0.22014406 0.7975432 0.5519284
0.4929659 0.53696215 -0.17566961 -0.0036724147 0.93138385 -0.0060286787 0.3517317 0.72751904
0.70928615 0.39016774 -0.7480531 0.085132964 -0.46306816 -0.36388576 -0.23048475 -0.24498825
-0.28013763 0.15151475 -0.023877468 0.010556116 0.24154086 0.4116679 0.34036422 -0.5344714
-0.523373 0.007534441 0.19370054 -0.16244608 -0.17983702 0.48468137 0.11285044 0.24017449
-0.07925311 0.2759738 0.08411795 0.20423375 0.20438504 0.18714759 0.073588066 0.17561682
00000000: c2af bdbe 73e8 28be 698a 3f3e aef1 103f
00000010: 6b71 aebe 70cb 1bbe 0f58 d7be 7b32 c0be
00000020: 4b9b 05be a9e0 b5bd 0262 033f 9a7b 0f3f
00000030: f535 2a3f 9915 2c3f e2ee 493f 9e62 2c3f
00000040: 8cb0 933e c476 083f e5ed a8be e77c 123f
00000050: 4ece ebbd e7d9 df3d cd96 cd3e b1c1 1a3e
00000060: de1f f73d 21b9 d73d b69f 3ebe 107a 8fbe
00000070: e556 4fbe 5279 933e 9954 0c3f bada 083e
00000080: 016a 073f e75c 153d 4b82 8cbf be17 09bf
00000090: 2693 463d 1d7e 6d3e bac6 3ebf ffef b03d
000000a0: c5c3 7cbe be45 873e 9b5a c73e 3ccf 88bd
000000b0: b2fd 32be f53d bbbd 87fe fd3e c13e e6bd
000000c0: 59fd fabd f780 c43e 90e8 153f 4a62 203e
000000d0: b091 193f caf4 4e3f 4476 083f 1ebd d13e
000000e0: f158 053f 5820 1f3f 7092 b43e aa4a 973e
000000f0: b1cf 7a3f 75be d53e 71eb 1f3e 1c9f bc3e
00000100: d657 e03e da3f 263f 6b72 f1bd dfdc 773f
00000110: 067d f73e c167 073f aaf6 dbbd 50c8 49be
00000120: d69e cebe 48a1 143e 32a3 c5bd 251c bf3d
00000130: 733c bebe 06e5 92be 7fde d3bb 2f77 71be
00000140: c9bf 993e c154 833e 0daf b1bd 4381 fc3c
00000150: b7e5 443f 6041 013f 74b7 45be d50d 393f
00000160: 8025 ef3e 14ce e33e e7c8 0cbe fb05 e4bd
00000170: 8198 3abf b20b 85be 6ff8 a2bd 073c 3cbe
00000180: 2f21 a7be fd56 afbe 5b80 65bd bb17 ecbe
00000190: 7d46 753b efc4 02bd ef85 d9be 2c67 a5be
000001a0: 7665 753e 7b40 b13e c7fd f4bd 785b 7b3d
000001b0: a429 1e3f e8eb 7c3e a22f 36bf fa92 053f
000001c0: 0157 4dbd 82a7 2b3e 6474 1abf 49ed 16bf
000001d0: a37a d1bd afc5 c4be bf49 9cbd 3d40 31bd
000001e0: d8d2 cd3d 65f4 c4ba 21c9 8e3f 048e f13e
000001f0: 71bf 3dbe 5726 1dbc 4138 01bf dfbf 253e
00000200: 4884 61be 8f74 1b3e 083c c03e ea64 2abe
00000210: 20df 2d3d 091c 273f 3bd8 8b3f f5e6 ce3e
00000220: 4215 07be 37d7 6e3e f0b9 dc3e 08bd 6abe
00000230: 293d 553d 7601 233f f2d5 b4bc c424 2abf
00000240: fdd8 bebe 59b3 f33e 460b de3e 576c 953d
00000250: a040 0d3e 8467 113f 974f cfbe 9955 903e
00000260: 3b73 e03e 3bea 8abb dd55 09bd 14e8 153e
00000270: 35c4 b23e 726d 613e cb2b 4c3f 2e4b 0d3f
00000280: 0766 fc3e 5a76 093f bce2 33be e5ac 70bb
00000290: 2c6f 6e3f 398c c5bb 2d16 b43e b03e 3a3f
000002a0: c793 353f 11c4 c73e 6880 3fbf 315a ae3d
000002b0: 4517 edbe 3c4f babe 3204 6cbe 33de 7abe
000002c0: 336e 8fbe af26 1b3e ae9a c3bc 8ff3 2c3c
000002d0: 7d56 773e 23c6 d23e 3844 ae3e 1ed3 08bf
000002e0: c6fb 05bf 79e3 f63b 6f59 463e 4458 26be
000002f0: 3227 38be 2828 f83e 221e e73d 4df0 753e
00000300: 744f a2bd 704c 8d3e 0846 ac3d a722 513e
00000310: 504a 513e 9ea3 3f3e 57b5 963d e5d4 333e

sequential/dense_2/MatMul f4 [4, 10]
0.29417783 -0.39066067 0.5480036 -0.7339298 -0.78230315 0.1587652 -0.02325646 0.8498608
-0.7663291 0.77248204 -0.31798384 0.055136345 -0.47405916 0.1374712 0.40831682 -0.8661567
1.2330842 -0.0045298766 0.06355255 0.31595042 -0.49982446 0.39411217 -1.2392124 -0.113630354
0.61744106 0.4970109 -1.3876776 -0.06200216 0.61335945 -0.48434642 0.88536394 0.94174004
0.16659218 -0.90386343 -0.4918443 -0.81989443 0.77180165 -0.25471523 -1.0304693 -0.026069669
00000000: 7a9e 963e ad04 c8be f749 0c3f d3e2 3bbf
00000010: 0545 48bf 5893 223e 5584 bebc 7a90 593f
00000020: 252e 44bf 62c1 453f c7ce a2be a6d6 613d
00000030: e2b7 f2be 40c5 0c3e e70e d13e 72bc 5dbf
00000040: b4d5 9d3f 5c6f 94bb d727 823d 41c4 a13e
00000050: fee8 ffbe 12c9 c93e 839e 9ebf 08b7 e8bd
00000060: 9e10 1e3f 3678 fe3e 6b9f b1bf faf5 7dbd
00000070: 2005 1d3f 41fc f7be 36a7 623f e015 713f
00000080: 2497 2a3e 9863 67bf 04d3 fbbe 9ae4 51bf
00000090: cb94 453f 096a 82be 6be6 83bf 0f90 d5bc
